…
"          3.5851e-01, -9.7034e-01, -3.4632e-02, -5.6040e-01,  4.5902e-01,\n","         -6.4668e-02, -7.1950e-01,  8.7441e-01, -1.4800e-02,  3.5268e-01,\n","          1.8461e-01,  6.0241e-01, -3.3053e-01,  6.4517e-01, -1.8833e+00,\n","         -1.4502e+00,  2.5170e-01, -2.4806e-01,  4.7283e-01,  7.5152e-02]],\n","       grad_fn=\u003cAddmmBackward0\u003e)\n","----------------------------------------------------------------\n","        Layer (type)               Output Shape         Param #\n","================================================================\n","         Normalize-1            [-1, 3, 32, 32]               0\n","            Conv2d-2           [-1, 16, 32, 32]             432\n","       BatchNorm2d-3           [-1, 16, 32, 32]              32\n","              ReLU-4           [-1, 16, 32, 32]               0\n","            Conv2d-5           [-1, 16, 32, 32]           2,304\n","       BatchNorm2d-6           [-1, 16, 32, 32]              32\n","              ReLU-7           [-1, 16, 32, 32]               0\n","            Conv2d-8           [-1, 16, 32, 32]           2,304\n","       BatchNorm2d-9           [-1, 16, 32, 32]              32\n","             ReLU-10           [-1, 16, 32, 32]               0\n","       BasicBlock-11           [-1, 16, 32, 32]               0\n","           Conv2d-12           [-1, 16, 32, 32]           2,304\n","      BatchNorm2d-13           [-1, 16, 32, 32]              32\n","             ReLU-14           [-1, 16, 32, 32]               0\n","           Conv2d-15           [-1, 16, 32, 32]           2,304\n","      BatchNorm2d-16           [-1, 16, 32, 32]              32\n","             ReLU-17           [-1, 16, 32, 32]               0\n","       BasicBlock-18           [-1, 16, 32, 32]               0\n","           Conv2d-19           [-1, 16, 32, 32]           2,304\n","      BatchNorm2d-20           [-1, 16, 32, 32]              32\n","             ReLU-21           [-1, 16, 32, 32]               0\n","           Conv2d-22           [-1, 16, 32, 32]           2,304\n","      BatchNorm2d-23           [-1, 16, 32, 32]              32\n","             ReLU-24           [-1, 16, 32, 32]               0\n","       BasicBlock-25           [-1, 16, 32, 32]               0\n","           Conv2d-26           [-1, 32, 16, 16]           4,608\n","      BatchNorm2d-27           [-1, 32, 16, 16]              64\n","             ReLU-28           [-1, 32, 16, 16]               0\n","           Conv2d-29           [-1, 32, 16, 16]           9,216\n","      BatchNorm2d-30           [-1, 32, 16, 16]              64\n","           Conv2d-31           [-1, 32, 16, 16]             512\n","      BatchNorm2d-32           [-1, 32, 16, 16]              64\n","             ReLU-33           [-1, 32, 16, 16]               0\n","       BasicBlock-34           [-1, 32, 16, 16]               0\n","           Conv2d-35           [-1, 32, 16, 16]           9,216\n","      BatchNorm2d-36           [-1, 32, 16, 16]              64\n","             ReLU-37           [-1, 32, 16, 16]               0\n","           Conv2d-38           [-1, 32, 16, 16]           9,216\n","      BatchNorm2d-39           [-1, 32, 16, 16]              64\n","             ReLU-40           [-1, 32, 16, 16]               0\n","       BasicBlock-41           [-1, 32, 16, 16]               0\n","           Conv2d-42           [-1, 32, 16, 16]           9,216\n","      BatchNorm2d-43           [-1, 32, 16, 16]              64\n","             ReLU-44           [-1, 32, 16, 16]               0\n","           Conv2d-45           [-1, 32, 16, 16]           9,216\n","      BatchNorm2d-46           [-1, 32, 16, 16]              64\n","             ReLU-47           [-1, 32, 16, 16]               0\n","       BasicBlock-48           [-1, 32, 16, 16]               0\n","           Conv2d-49             [-1, 64, 8, 8]          18,432\n","      BatchNorm2d-50             [-1, 64, 8, 8]             128\n","             ReLU-51             [-1, 64, 8, 8]               0\n","           Conv2d-52             [-1, 64, 8, 8]          36,864\n","      BatchNorm2d-53             [-1, 64, 8, 8]             128\n","           Conv2d-54             [-1, 64, 8, 8]           2,048\n","      BatchNorm2d-55             [-1, 64, 8, 8]             128\n","             ReLU-56             [-1, 64, 8, 8]               0\n","       BasicBlock-57             [-1, 64, 8, 8]               0\n","           Conv2d-58             [-1, 64, 8, 8]          36,864\n","      BatchNorm2d-59             [-1, 64, 8, 8]             128\n","             ReLU-60             [-1, 64, 8, 8]               0\n","           Conv2d-61             [-1, 64, 8, 8]          36,864\n","      BatchNorm2d-62             [-1, 64, 8, 8]             128\n","             ReLU-63             [-1, 64, 8, 8]               0\n","       BasicBlock-64             [-1, 64, 8, 8]               0\n","           Conv2d-65             [-1, 64, 8, 8]          36,864\n","      BatchNorm2d-66             [-1, 64, 8, 8]             128\n","             ReLU-67             [-1, 64, 8, 8]               0\n","           Conv2d-68             [-1, 64, 8, 8]          36,864\n","      BatchNorm2d-69             [-1, 64, 8, 8]             128\n","             ReLU-70             [-1, 64, 8, 8]               0\n","       BasicBlock-71             [-1, 64, 8, 8]               0\n","AdaptiveAvgPool2d-72             [-1, 64, 1, 1]               0\n","           Linear-73                  [-1, 100]           6,500\n","      CifarResNet-74                  [-1, 100]               0\n","================================================================\n","Total params: 278,324\n","Trainable params: 278,324\n","Non-trainable params: 0\n","----------------------------------------------------------------\n","Input size (MB): 0.01\n","Forward/backward pass size (MB): 5.18\n","Params size (MB): 1.06\n","Estimated Total Size (MB): 6.26\n","------------------------------------------
…
